scripts/brain/sales_brain.pth (torch, 89475 bytes, 25 tensors)

input_layer.weight f4 [64, 7]
000000 98 91 8a be 7a ed 7e bd 16 b7 a1 be 9e 70 10 be
       -0.27064204 -0.062238194 -0.31584996 -0.1410546
000010 b6 c6 b3 be c2 ca dd bd e7 2e c7 bd fb c1 06 3e
       -0.35112542 -0.108296886 -0.09725743 0.13159935
000020 bd 5e 93 3e ea 4c d7 3d ad 84 93 3e 5a ae 52 bd
       0.28783217 0.10512717 0.2881216 -0.051435806
000030 63 f1 ad be 71 4c 2e be d9 bc 89 3c 01 9c 70 be
       -0.33973226 -0.17021348 0.016813682 -0.23497011
000040 40 e8 89 be ba 63 8e be 58 58 82 3d 58 b9 7f 3e
       -0.26935005 -0.2781046 0.063645065 0.24973047
000050 ff 99 9f be eb f1 19 3e ea 6e a8 3e ba 40 07 3e
       -0.31172177 0.1503369 0.3289712 0.13208285
000060 59 bd 05 bd 9f fd c1 3c c2 7d fa bd 3e 5b c1 be
       -0.03265128 0.023680506 -0.12231018 -0.37764925
000070 f7 8e 57 be b6 7f 3f be d3 73 20 be 8d 61 07 3e
       -0.2105063 -0.18701062 -0.15669183 0.13220806
000080 81 ce 37 be 23 f8 05 3e 82 b8 2a 3e 71 70 40 3e
       -0.17949869 0.13082938 0.16671947 0.18792893
000090 eb ca f2 3c 02 e3 70 3e 43 8e 75 3e de d4 32 be
       0.029637774 0.23524097 0.2398005 -0.17464015
0000a0 c6 89 94 be 74 02 99 3e 77 38 2c 3d 69 e1 7a 3e
       -0.29011363 0.29884684 0.042046037 0.2450005
0000b0 6b ff 83 3d ac be c0 3d 3d 9b 41 bd 37 0e ce bd
       0.064452015 0.09411368 -0.047267187 -0.10061305
0000c0 0f 5c 39 3d f9 2b 5b bc 72 7e 89 3e 66 93 a6 be
       0.04525381 -0.013377183 0.26854283 -0.3253433
0000d0 bd 34 81 bb 2d 6e 91 3e da 50 9e 3c 36 9d 5f 3e
       -0.0039430545 0.2840437 0.019325662 0.21837315
0000e0 e9 14 9e bd ae 75 8f 3d 3c cc 82 3e d3 ca 04 3e
       -0.07718832 0.070048675 0.25546443 0.12967996
0000f0 d3 8e 93 3e b4 a6 a7 3e 18 e5 e1 3e 0d 14 a4 3d
       0.28819904 0.32744372 0.44120097 0.08011637
000100 d4 7b d7 3d 49 38 33 3e 6b c3 5e 3e 71 42 09 3e
       0.10521665 0.1750194 0.21754234 0.13404252
000110 08 56 8d be a7 49 60 be b5 8a 3b be 78 f0 52 be
       -0.276047 -0.21903096 -0.18314631 -0.20599544
000120 7b ac b0 3e d2 c6 43 3e 5f c3 8f 3d 36 bd 7b 3e
       0.34506592 0.19118813 0.07019686 0.24583897
000130 1e 99 d5 be 90 7f b8 3e de 48 83 bd eb c4 34 be
       -0.41718382 0.36034822 -0.06410383 -0.17653243
000140 d0 c3 b0 bc e4 cc 9f 3e ad 60 a1 3e 79 a0 41 3b
       -0.021577746 0.31211007 0.3151907 0.0029545112
000150 48 20 98 3d e0 b7 e6 3c ad fd 12 be ee 82 0c 3e
       0.07428032 0.02816385 -0.14354582 0.1372182
000160 60 1d 9c be 56 75 a4 be b3 4f 6c be 7b 63 ad bc
       -0.3049116 -0.3212077 -0.23077278 -0.0211656
000170 60 17 19 be 86 af 86 be ee 8d 66 3e d2 8c 8e 3e
       -0.14950323 -0.2630579 0.2251508 0.27841812
000180 d7 1b 1c 3d c9 e9 70 bd f4 80 c4 3e 5e dd 0b 3c
       0.038112488 -0.058816705 0.38379633 0.008536665
000190 65 15 7b 3e a9 99 1d bd a5 9c 27 3e 29 cd 26 3e
       0.2451988 -0.03847662 0.16368349 0.162892
0001a0 6d 69 83 be 6b 13 27 3d 8f a2 1e 3e d1 d7 3f be
       -0.2566637 0.040790003 0.15491699 -0.18734671
0001b0 bb c4 84 be f4 b6 15 bd c1 5f 73 3e 81 c0 c1 3d
       -0.25931343 -0.03655143 0.23766996 0.09460545
0001c0 f8 99 d9 3c 19 e4 a9 3e ec 9d 77 3e 45 82 38 bc
       0.026562676 0.33181837 0.24181336 -0.011261527
0001d0 87 74 03 3d 35 c4 20 bc 7b d9 3b be 3b 87 76 3d
       0.03209355 -0.009812404 -0.18344681 0.06018756
0001e0 54 60 9f 3e dc d2 3f 3e ee 39 40 3e 60 74 44 3d
       0.3112818 0.1873278 0.18772098 0.047962546
0001f0 e9 54 c7 be bf 04 5b 3e 94 58 a8 be e1 64 a1 3e
       -0.3893197 0.21388529 -0.3288008 0.31522277
000200 90 d9 02 3b 52 0c 72 3e 8e a6 d4 be 3e c0 8f 3e
       0.0019966103 0.23637512 -0.4153332 0.28076357
000210 ea fa 92 3e 0f ee 26 3e c5 21 38 3e 8c b3 50 be
       0.28707057 0.1630175 0.17981632 -0.20380992
000220 b4 12 80 3e 4b ed 69 3d 0c fc 6c be 41 24 65 be
       0.2501427 0.057111066 -0.23143023 -0.22377111
000230 f7 91 94 ba 81 84 1d 3e a5 f3 80 be fd a2 a2 be
       -0.0011335005 0.15382577 -0.25185886 -0.31764975
000240 b3 c7 64 3e 33 f5 e9 be ac f3 63 3e c0 8e f4 bd
       0.22341804 -0.45694885 0.22260922 -0.1194129
000250 52 0c 88 3e f8 3a ac 3c 1b 28 ac bd 26 42 ac bc
       0.265719 0.021024212 -0.08406087 -0.021027636
000260 76 9b 73 be 5a f6 85 bd 16 f3 a6 3e 2e aa 6e be
       -0.23789772 -0.065411285 0.32607335 -0.23307106
000270 2a 44 81 be bf 3f b3 3e 5c cb 20 3d bf 9e b5 be
       -0.25247318 0.35009572 0.03925644 -0.35472676
000280 e9 09 1a 3e 8c 56 5e 3d 41 c5 97 be 7e 0d 53 3d
       0.15042843 0.054281756 -0.2964268 0.05152654
000290 a4 90 8a bd 63 42 55 3e ca 29 cc 3e 25 36 a1 bd
       -0.06765869 0.20826106 0.39875633 -0.078716554
0002a0 e7 4f 94 bd 40 f6 e5 3d 05 55 81 3e 01 c6 49 3e
       -0.07241803 0.11228609 0.25260177 0.19704439
0002b0 05 54 e7 be 87 18 d2 be 08 80 c8 be da 87 87 3c
       -0.4518129 -0.41034338 -0.3916018 0.016544271
0002c0 36 b3 fb bd 05 b4 09 be eb 8d ee 3c da c6 34 be
       -0.12290041 -0.13447578 0.029120406 -0.17653981
0002d0 5f a1 2a 3e f0 64 13 bd ed 02 0c be da 3f 94 be
       0.1666312 -0.035984933 -0.13672991 -0.28954965
0002e0 a4 ab 30 3e 80 e6 a2 be da f8 57 3c 98 1e a5 be
       0.17252976 -0.31816483 0.013181889 -0.32249904
0002f0 f3 fb a7 3e c6 98 ab 3e 84 e3 01 be 4c d0 a8 bd
       0.3280941 0.33514994 -0.12684447 -0.082428545
000300 0d 7e 74 be d5 51 15 be c0 57 29 bc 9f 7c 28 bc
       -0.2387621 -0.14581998 -0.010335863 -0.010283618
000310 5b 12 8e 3e 07 31 11 be 80 c3 89 bd e0 c2 18 bd
       0.2774838 -0.14178859 -0.06726742 -0.037295222
000320 bc be 37 3e d6 36 a5 be 86 f6 86 3e 06 47 c3 be
       0.17943853 -0.322684 0.26359957 -0.38140124
000330 b9 80 d1 3d ad 8a 0f bd a3 33 ab bd f4 ec 1f 3e
       0.1022963 -0.03504436 -0.08359458 0.15617734
000340 81 a2 f0 3b 3c cb 64 bd 7b 49 5f be 83 c7 c6 be
       0.0073435907 -0.055857882 -0.21805374 -0.3882409
000350 38 fa 40 bd 2c 67 98 3d 94 8a 21 be ca f0 cd 3e
       -0.047113627 0.074415535 -0.1577552 0.4022277
000360 dc 4a 13 3e dc 17 f8 bd d8 0d ff 3d 60 7c d3 3d
       0.14384025 -0.12113926 0.12453812 0.10326457
000370 d2 c9 32 3e a8 ff b5 be 4d 9e 0e be 4f 53 2a 3e
       0.17459801 -0.35546613 -0.13927574 0.16633342
000380 71 41 58 3e 76 ef 86 be 90 ff 54 3e a0 a2 c4 3e
       0.21118714 -0.2635457 0.20800614 0.38405323
000390 f4 da bb bd 58 2a 83 be af 03 54 3d 69 ef c5 be
       -0.09172621 -0.25618243 0.051761325 -0.38659218
0003a0 10 a2 50 be 80 97 42 3d 1c d0 ea 3d 67 95 d3 bd
       -0.20374322 0.047507763 0.11465475 -0.103312306
0003b0 0d 74 73 be 38 e4 19 be 41 a9 35 3e 72 0e 82 3d
       -0.23774739 -0.15028465 0.17740346 0.063504115
0003c0 ed dc 85 be d1 ad d7 be 6a c7 ff 3d a8 aa 62 be
       -0.26145115 -0.421248 0.12489207 -0.22135413
0003d0 fe 1e c8 3d 8d 3b a7 3e 3c f0 3c be cc e4 4d be
       0.09771536 0.3266262 -0.18451017 -0.2010681
0003e0 8e a3 79 3e 0e ad 14 be b8 b6 b4 be 9f 86 26 be
       0.24378797 -0.1451914 -0.35295653 -0.16262291
0003f0 c5 be 4b be 4e c1 4c be 68 6a b2 bd 17 30 79 be
       -0.19896992 -0.19995615 -0.08711702 -0.24334751

input_layer.bias f4 [64]
000000 35 9d 78 be 1d 55 f8 bd 98 f3 bf 3e a5 ae ba be
       -0.2427872 -0.12125609 0.37490535 -0.36461368
000010 0c c4 71 be 12 9c 63 be 00 fb 2b 3d b7 db 59 be
       -0.23609942 -0.22227505 0.04198742 -0.21275221
000020 43 34 bf 3e 7a d6 20 be 84 d1 1f bd 13 3b 11 be
       0.3734456 -0.15706816 -0.03901817 -0.14182691
000030 09 d6 86 3e af 96 a0 be d3 20 0a bc d8 62 76 3e
       0.2633517 -0.31364962 -0.0084306775 0.24061143
000040 e3 82 00 be 5c 90 3b 3e ef 1f 51 3d 06 ea ae be
       -0.1254993 0.18316787 0.051055845 -0.3416292
000050 d0 89 8a 3e 82 ef a8 3e 27 92 85 bd 0b ec 5a bd
       0.27058268 0.3299523 -0.06522017 -0.053447764
000060 89 65 04 3e 23 ee 93 be 0b 87 67 3e ea 1f df bc
       0.12929358 -0.2889262 0.22610109 -0.027236897
000070 59 40 ea 3d 26 7e 5d be ad 79 69 3e 53 aa 79 bd
       0.114380546 -0.21630153 0.22800322 -0.06095345
000080 b7 b9 9d 3e 48 78 04 3d 98 f1 aa 3d cb 0e 3b be
       0.30805752 0.03234127 0.083468616 -0.18267362
000090 8f 11 92 bd d8 b2 8e bc a7 47 fa bd 40 b0 88 bd
       -0.07132255 -0.017419264 -0.12220698 -0.06674242
0000a0 df 83 9e 3e 44 3b 51 be cd df e2 bd df bc d5 3d
       0.30959985 -0.20432764 -0.11077843 0.10436415
0000b0 7f 40 3f bd 62 00 5b be 07 92 15 3c 01 fe 28 be
       -0.046692368 -0.21386865 0.009129054 -0.16503145
0000c0 14 cb bd bd 89 b8 3a 3e 6a 77 23 3e 7a 8f 54 be
       -0.0926725 0.18234457 0.15963522 -0.20757857
0000d0 7b ae 03 3e ea a2 62 3e 68 ec f9 3c 82 ef 92 bd
       0.12859528 0.2213246 0.030508235 -0.07174589
0000e0 a2 aa b0 be f2 81 aa 3e a9 b5 bf bd ae 47 4c be
       -0.34505183 0.33302265 -0.09360821 -0.19949219
0000f0 ff 78 95 3e dc 02 bf bd ce ed a1 be f8 ad 90 be
       0.29193875 -0.09326717 -0.31626743 -0.28257728

bn1.weight f4 [64]
000000 a2 33 7a 3f b3 9f 8a 3f 20 ea 89 3f f7 82 81 3f
       0.97735035 1.0829986 1.0774574 1.0118092
000010 e6 68 65 3f 19 3c 74 3f 9f ec 7c 3f b6 88 6c 3f
       0.8961319 0.954042 0.98798555 0.92396104
000020 27 20 80 3f 55 fc 75 3f e2 29 5e 3f c6 7e 7a 3f
       1.0009812 0.96088153 0.8678266 0.9784969
000030 fd e9 8f 3f a8 17 74 3f 35 04 6c 3f fe 4e 73 3f
       1.1243283 0.95348597 0.9219392 0.9504241
000040 1e d4 6f 3f 55 32 88 3f 0c f2 71 3f 76 ed 75 3f
       0.9368304 1.064036 0.9450996 0.9606546
000050 d2 85 86 3f 82 ca 8c 3f 23 ac 82 3f d2 1d 87 3f
       1.0509589 1.09993 1.0208782 1.0555975
000060 5e 9a 87 3f 88 9e 81 3f d6 93 87 3f a3 03 8b 3f
       1.0593984 1.0126505 1.0591991 1.0860485
000070 8b c6 85 3f 31 2b 84 3f 90 8a 7f 3f 51 f8 85 3f
       1.0451216 1.0325681 0.99820805 1.0466405
000080 f8 50 71 3f 4b fc 79 3f e3 a6 74 3f 0e 50 84 3f
       0.94264174 0.97650594 0.9556715 1.0336931
000090 a7 2c 91 3f 0c 3a 75 3f cc a6 8c 3f 55 67 8a 3f
       1.1341752 0.957917 1.0988402 1.0812784
0000a0 21 a8 83 3f b3 75 80 3f 0c fc 84 3f cc b0 81 3f
       1.0285684 1.0035919 1.0389419 1.0132079
0000b0 da 08 82 3f 51 9c 7c 3f cd 91 80 3f 31 e2 69 3f
       1.0158951 0.9867602 1.0044495 0.91360766
0000c0 66 2c 80 3f 90 75 7b 3f 51 ac 7f 3f c7 1f 78 3f
       1.0013549 0.9822626 0.9987231 0.9692349
0000d0 2b 82 67 3f 4e 94 7b 3f c7 14 6f 3f 52 e0 83 3f
       0.90432996 0.9827317 0.9339108 1.0302832
0000e0 a9 ed 72 3f 94 77 67 3f 08 84 87 3f f0 01 6d 3f
       0.9489389 0.90416837 1.0587168 0.9258108
0000f0 ee cb 81 3f 2f 63 82 3f 7d e8 88 3f 35 c1 72 3f
       1.0140359 1.0186518 1.069595 0.9482606

bn1.bias f4 [64]
000000 fc 38 12 bd 0f 17 1e 3c 11 af a7 3d c3 8d 50 bd
       -0.035698876 0.009649052 0.08187688 -0.050916445
000010 b4 6b 35 bd ce 4d 0a 38 24 0f ca bb 9e 82 d4 bd
       -0.044292167 3.2974225e-05 -0.0061663557 -0.10376476
000020 3f 6d 2c bd d1 96 85 3d e3 a5 78 bd bb a6 2c 3c
       -0.042096373 0.065229066 -0.060705077 0.0105377985
000030 7e 2a 8f 3d 93 91 0b bd a4 91 9a bd b0 7f 6b bd
       0.069905266 -0.034074377 -0.0754731 -0.05749482
000040 4a 7e 88 bd 6a 4c b9 3d c8 f4 64 3b 5d 79 94 3c
       -0.06664713 0.09047778 0.003493594 0.018124277
000050 c5 93 78 3d 32 a6 b1 3b 5e 2a 67 bc 84 25 f5 3c
       0.0606878 0.0054214234 -0.014109222 0.029925115
000060 8e 45 87 3d 5a fc 68 bd 5f 16 62 bd c3 11 07 3d
       0.066050634 -0.056881286 -0.055197116 0.032975923
000070 42 ad 2e bd c1 f7 90 3d 5e 37 b5 3c 6c ce c0 38
       -0.0426457 0.07078505 0.022121128 9.1937225e-05
000080 ac 50 6b bd 8b b9 85 bd 82 e1 82 bd 9b 90 2e bd
       -0.05744998 -0.0652953 -0.063906685 -0.042618375
000090 c0 76 dd bc 0c 5a 88 bc 59 c9 39 3d 02 1b 54 bc
       -0.027034163 -0.0166445 0.045358036 -0.012945892
0000a0 62 e0 32 3d 4c 58 0d 3c 8d e9 b5 bc 02 8c 87 bc
       0.04367102 0.008627009 -0.022206092 -0.016546253
0000b0 fd aa e2 bc 1f 4c b4 3b 2f 73 0a bd 35 0d 43 bd
       -0.027669424 0.0055022384 -0.033801254 -0.047620017
0000c0 f2 e6 1e bd 33 97 33 bd e0 07 2e b8 36 99 84 3c
       -0.038794465 -0.043845367 -4.1492167e-05 0.016186338
0000d0 df 12 9b 3c d9 51 08 bd 72 79 e0 3c 22 47 eb bd
       0.018929897 -0.03328118 0.02740166 -0.11488177
0000e0 9e 70 4d bd 8d 29 ea bd d1 fe 0e 3b a3 58 54 bd
       -0.05015623 -0.114337064 0.0021819363 -0.051842343
0000f0 b8 e3 a0 bd 17 63 27 bd 9e 89 dd 3b 46 7e 0c bc
       -0.07855934 -0.040865984 0.00676079 -0.008575028

bn1.running_mean f4 [64]
000000 f7 3c 5b be 98 93 f1 bd 1a 81 c3 3e ce de bd be
       -0.21409975 -0.117957294 0.38184434 -0.3708405
000010 48 c3 6b be cb 84 5a be 59 9f 14 3d 6d e4 6b be
       -0.23023713 -0.21339719 0.03628478 -0.23036356
000020 49 5d aa 3e b5 8a 1d be 5d 9b 4b bd a7 39 28 be
       0.33274296 -0.15384944 -0.049708713 -0.16428243
000030 cd d1 95 3e 2e b8 a1 be 5c f2 cd bc 9d ca 68 3e
       0.29261628 -0.3158583 -0.02513998 0.22733541
000040 06 1d 12 be 15 f6 39 3e ec 8b eb 3c 66 47 ac be
       -0.14268884 0.18160279 0.028753243 -0.33648223
000050 58 0f 94 3e 0d da aa 3e 63 ea 22 bd ad 9c 8b bd
       0.28917956 0.33369485 -0.03977431 -0.06816993
000060 b3 aa 22 3e 04 1b 92 be 9b a3 82 3e de be 59 bc
       0.15885429 -0.28536236 0.25515446 -0.013290135
000070 c3 53 06 3e 26 99 63 be d7 85 67 3e bf 42 5b bd
       0.1311789 -0.2222639 0.2260965 -0.05353045
000080 94 3d a7 3e f8 ed 6e 3d d6 b5 c8 3d 36 87 19 be
       0.32664168 0.058332413 0.098003075 -0.14992985
000090 3f 17 89 bd cc 70 49 bc 3a d1 d8 bd 5c 2c b4 bd
       -0.06693887 -0.012294959 -0.10586782 -0.087975234
0000a0 9b f6 96 3e 29 00 5d be 5c fc c5 bd 99 64 f9 3d
       0.2948502 -0.21582092 -0.09667274 0.121773906
0000b0 50 8a 63 bd 93 fe 76 be 14 8e 22 3d c2 82 41 be
       -0.055551827 -0.2412055 0.039686278 -0.18897536
0000c0 7e 21 ad bd 6d fc 32 3e 13 35 17 3e 8e 79 5c be
       -0.08453654 0.17479105 0.1476634 -0.21530744
0000d0 66 b4 10 3e eb 02 52 3e 4f dc de 3c a1 48 93 bd
       0.14131317 0.20508926 0.02720466 -0.07191587
0000e0 3e 13 b5 be 70 cd 9e 3e 21 60 98 bd 09 7a 62 be
       -0.35366243 0.3101611 -0.0744021 -0.22116865
0000f0 98 9e 99 3e 7c ac a6 bd bb ef 99 be 23 9f 8f be
       0.3000381 -0.081383675 -0.30065712 -0.280511

bn1.running_var f4 [64]
000000 cd 50 ba 3e 30 d2 c9 3d 94 67 33 3e 40 b5 93 3e
       0.3638977 0.09854543 0.1751998 0.2884922
000010 d2 1a 4f 3e cc c0 2d 3e 5d 6d 46 3d 3c 68 9d 3e
       0.20225075 0.16968077 0.04844414 0.30743587
000020 15 e3 e9 3e 8b 30 e3 3d 4d eb e7 3e 2c a4 b2 3e
       0.45681062 0.11093243 0.45296708 0.34890878
000030 fd ca 3e 3e 00 96 4e 3e 8b 59 ba 3e 72 6c 4e 3e
       0.18632121 0.20174408 0.3639644 0.20158556
000040 11 f8 48 3e 0b 6a e4 3d fc 88 ff 3e 09 fc 34 3e
       0.1962588 0.111530386 0.49909198 0.17674269
000050 53 01 1e 3f a1 23 72 3d aa c1 8f 3e 58 9d 98 3d
       0.6172077 0.05911601 0.2807744 0.07451886
000060 ea f6 d5 3e be 99 92 3d 87 0d 3d 3f 7c eb 15 3e
       0.41789943 0.0715823 0.73848766 0.14640611
000070 7f d9 7b 3e 46 17 02 3e d1 73 8c 3e 37 fd 1c 3e
       0.24594687 0.1270419 0.2743211 0.15330969
000080 84 c4 68 3e 94 21 0a 3f c7 ee df 3e 48 c0 58 3e
       0.22731215 0.53957486 0.4373686 0.211671
000090 0c 1f ec 3d e7 2c dc 3e 37 c6 87 3e 1d 33 fd 3d
       0.11529359 0.43003008 0.26518413 0.12363265
0000a0 4d d8 4e 3e fe 73 33 3e 60 41 ed 3e 4f 17 01 3e
       0.201997 0.17524716 0.4633894 0.12606548
0000b0 90 57 14 3e a4 75 95 3e f2 8a 93 3e 8d b6 78 3f
       0.14486527 0.29191315 0.28816944 0.9715355
0000c0 9a ea 5e 3e f3 e5 65 3e a1 2d ca 3e e2 36 34 3e
       0.21769181 0.22451 0.39487937 0.17599061
0000d0 cc 36 f1 3e 4f 1d e3 3e 9a 45 85 3e e5 7c 3d 3e
       0.4711212 0.44358298 0.26029664 0.18504675
0000e0 b8 7d e7 3e 9e 52 d5 3e b8 c1 29 3e b4 3f e7 3e
       0.45213103 0.41664594 0.16577804 0.4516579
0000f0 2e 88 e4 3e c9 01 2c 3e bd e9 0e 3e b0 c6 c1 3e
       0.44635147 0.16797556 0.13956352 0.378469

res_block1.0.weight f4 [64, 64]
000000 24 f0 ee 3c 28 02 11 3e b8 e5 68 bd c3 0c a8 3d
       0.029167242 0.14160979 -0.056859702 0.08205559
000010 da 62 eb bc ae 41 96 3d c8 11 1f 3e 8f 05 6f 3d
       -0.02873366 0.07336746 0.15534127 0.05835491
000020 2f 28 8a 3d 77 e7 bb bd 86 d7 42 3d 6a cb 83 3d
       0.06745946 -0.09175008 0.04756882 0.064352825
000030 0c 04 dc 3d 0d 97 16 bc e4 82 04 3c c5 97 af 3d
       0.107429594 -0.009191287 0.008087847 0.085738696
000040 cb a7 a1 3d 7d b5 5d 3d 2d 57 35 be 56 19 c1 3d
       0.07893332 0.05412816 -0.17709036 0.094286606
000050 04 84 88 bd 0c f3 3b 3e b0 78 11 be 55 1e f8 3c
       -0.06665805 0.18354434 -0.14206195 0.030287901
000060 ad e7 10 bd 92 5f 98 3d c2 e9 ad bd a9 ae cf bc
       -0.035377193 0.074401036 -0.084918514 -0.02535184
000070 91 b8 b2 bd 4e 53 21 3e a4 3f de bd f8 d5 38 be
       -0.087266095 0.15754434 -0.10851982 -0.18050373
000080 0d 48 d6 bd 45 0c 91 3b 93 95 1a 3e 47 50 c0 3d
       -0.10462961 0.0044265115 0.1509612 0.09390312
000090 0d ba 78 bd 83 66 c2 3d a7 0e 07 3e f8 45 da 3d
       -0.060724307 0.09492209 0.13189183 0.10657877
0000a0 ba b1 a2 bd cb a8 b3 bd 33 26 fc bb c7 bd 55 3d
       -0.07944055 -0.08772429 -0.0076949834 0.05218294
0000b0 74 af ed 3d 64 f0 43 be 02 de 0c bd 6d 81 98 3d
       0.11605731 -0.1913467 -0.03439141 0.07446561
0000c0 e1 91 ac 3d 0a 8c eb bb 3e 3b c0 bd e7 08 ed bd
       0.08426262 -0.007188325 -0.093862996 -0.115739636
0000d0 dd 75 df bd 70 36 8b bd 26 04 94 3d af ef 58 be
       -0.109111525 -0.067974925 0.07227354 -0.21185182
0000e0 56 8c 00 3d c9 3a a3 bd 67 8b 1e 3d e8 12 7a 3d
       0.031383835 -0.07970197 0.038707163 0.061053187
0000f0 db 4a d4 3d 95 e3 99 bd a1 18 ed 3d 17 a9 5d bd
       0.1036584 -0.07514111 0.11576963 -0.054116335
000100 77 84 4a bd 84 39 f0 3c c5 06 b8 3c 5a 5a 08 3e
       -0.049442735 0.0293243 0.022464165 0.13315716
000110 64 28 f9 3c 7d c2 9b bd fc 38 be 3d d1 1a 0e be
       0.030414768 -0.07605455 0.09288213 -0.13877417
000120 3e 96 fa bd 1f e5 74 3d 65 5c 92 3d 5f 95 85 bd
       -0.12235688 0.05978882 0.07146529 -0.06522631
000130 ed 96 a6 bc fc 27 9b bc 35 5d 83 bd 0a 35 54 3c
       -0.020335639 -0.018939964 -0.06414262 0.012952099
000140 96 b5 e6 bc b1 c4 27 be 32 08 a2 bd 25 7d e7 3b
       -0.028162759 -0.16383626 -0.079117194 0.007064479
000150 d0 5b fa bd 0c 83 1a be 73 11 fb bd 69 5d 2b be
       -0.12224543 -0.15089053 -0.122591875 -0.16734852
000160 3b 9f e9 3d c8 7a 63 3d 12 86 49 3d 59 ef fd 3c
       0.11407324 0.055537015 0.049200125 0.030997919
000170 96 09 29 3d 68 51 4c bc 5e b3 8a 3d 96 6d 82 3d
       0.041268907 -0.012470581 0.06772493 0.06368558
000180 44 9a 66 3d 85 87 1b 3e 0b ad c8 bd 78 fe 24 3d
       0.056299463 0.15188415 -0.0979863 0.040281743
000190 13 1b 8e 3d 1c c7 90 3d a4 01 e1 3d 25 d5 8b bd
       0.06938758 0.07069227 0.10986641 -0.068277635
0001a0 c8 0c 71 3d a9 ba a7 bd 91 1e e8 3d e9 75 81 3d
       0.05885008 -0.081898995 0.11333955 0.06321318
0001b0 47 ef e0 3b 72 6e 4e bd e8 92 db 3d e2 2b ff 3d
       0.0068644616 -0.050398298 0.107213795 0.12459542
0001c0 16 9a 3f be a5 a5 14 3e ff 53 99 bc 9b 42 2e bd
       -0.18711123 0.14516313 -0.01871681 -0.04254399
0001d0 4a 15 b3 3d 80 e2 04 be 85 7a 67 3d 70 5c 1c 3e
       0.08744295 -0.12977028 0.056513328 0.15269637
0001e0 2b 41 4f bc 67 ed df bc 6c 74 5e 3e 53 a2 5a bd
       -0.012649815 -0.027334882 0.21724099 -0.05337746
0001f0 68 bb 51 3d a4 fd d1 bd fe 44 2e bd c2 c9 15 3d
       0.051204115 -0.10253456 -0.042546265 0.036569364
000200 df dd 08 be 20 75 05 3d e6 cd ee 3c 36 cc ab bd
       -0.13365887 0.032582402 0.029150914 -0.083885595
000210 29 0e a2 bd 97 d5 7e bd 6c 82 a5 bd db 01 62 3d
       -0.07912857 -0.062215414 -0.080815166 0.05517755
000220 68 3e 34 3c 97 33 dd bd cb c9 61 3d 80 14 98 3d
       0.011001207 -0.108008556 0.055124085 0.07425785
000230 9f 3b 23 3d 59 cc 28 bc 55 aa cb bd 8b e6 ee bd
       0.03985178 -0.0103026265 -0.09944598 -0.11665066
000240 f7 7c 91 3d 39 d5 fb bd b3 e7 d6 bc 18 a3 97 3d
       0.07103913 -0.12296528 -0.02623353 0.074041545
000250 2b 81 b6 bd 29 c1 15 bd bc 15 01 bd 61 d3 fc bd
       -0.089113556 -0.036561165 -0.03151487 -0.12345005
000260 2a d0 2b bd 41 c5 d6 3c 58 ac 08 bd d2 9a f8 3c
       -0.041946568 0.026217105 -0.033367485 0.030347262
000270 6a f1 0d bd df 6f 12 be 30 d1 0c bd 84 a7 a4 bd
       -0.03465406 -0.14300488 -0.034379184 -0.080397636
000280 30 fc a5 3d 0f b9 60 3d 54 0e a4 3c 73 71 1b bd
       0.081047416 0.054863986 0.020026363 -0.03794999
000290 c0 5b b6 3d cc 62 dc bd 61 13 e3 bd 17 58 cb 3d
       0.08904219 -0.107610315 -0.110876806 0.09928911
0002a0 cb 41 23 3d f4 42 1d 3d e7 1e 38 3d f7 65 65 3d
       0.039857667 0.03839393 0.044951346 0.056005444
0002b0 5f ab 18 bd b7 34 b5 bd c8 04 b5 bd 45 22 ff bd
       -0.037272807 -0.08847945 -0.088388026 -0.12457708
0002c0 f0 48 b7 bd ae ff eb bd 30 08 09 be 24 7f 79 bd
       -0.089494586 -0.115233764 -0.1338203 -0.060912266
0002d0 ca 18 f0 bd 46 ba 0c be 4d bc c3 bc 2a 24 98 bd
       -0.11723478 -0.13742933 -0.0238935 -0.07428773
0002e0 51 e7 b6 bd f4 8d c9 bd d8 02 0a 3d 49 c9 9e bb
       -0.08930839 -0.098415285 0.03369412 -0.0048457724
0002f0 cd b7 ff bc 4f 1f 5a 3d 71 cf c8 3d 49 41 8a 3d
       -0.031215573 0.053252514 0.09805191 0.067507334
000300 fa 87 93 bd 07 2b 1c be 6b 57 bf 3d 40 04 e4 ba
       -0.0720367 -0.15250789 0.093428455 -0.0017396286
000310 71 08 0e be 5b db 8e 3d 45 b1 ac bc ac 9e b6 3d
       -0.13870408 0.069754325 -0.021080622 0.08916983
000320 52 8a 1b 3d 32 a6 50 3d 89 54 2a 3d 7f be 74 bd
       0.03797371 0.050939746 0.041584525 -0.059751984
000330 98 7b f9 bd 4b df b2 bd 9e 1b f9 bb 22 b5 c5 bd
       -0.12181777 -0.08733996 -0.007602169 -0.09653689
000340 1b 0f 27 3d a3 b9 71 bc d1 db 77 bc 60 04 31 bd
       0.04078589 -0.014753732 -0.015128092 -0.043217063
000350 7d 52 90 bd b9 78 39 3e 6b 7e 66 bc ca 48 ab bd
       -0.070469834 0.18112458 -0.014068226 -0.08363493
000360 e1 55 17 be 5c c8 b7 bd 3c 3e d3 b8 bc 04 36 bd
       -0.14778854 -0.089737624 -0.00010072856 -0.04443811
000370 70 76 a8 3d 6b d8 18 be 25 22 1e be 79 4a 5e bd
       0.08225715 -0.14926307 -0.15442713 -0.05427024
000380 37 90 fc 3d ce 22 58 be a2 53 46 bd 88 b3 95 3d
       0.12332194 -0.21107027 -0.048419602 0.073096335
000390 94 9d 29 bd 2e cd b4 bc 65 d1 19 3e be 88 89 3b
       -0.041410044 -0.022070494 0.15021284 0.004197209
0003a0 74 62 93 3d 50 f1 9b 3d 07 54 0f be 11 9f 0c 3e
       0.07196513 0.07614386 -0.13996898 0.13732554
0003b0 62 48 6b bd 94 a9 6b 3c eb 3e 0d 3d fc 63 19 3d
       -0.057442077 0.014383692 0.03448383 0.03744887
0003c0 9d 42 08 be cc f0 56 3d 8f 9a 84 3d 92 61 87 3d
       -0.13306661 0.052475736 0.06474792 0.06610407
0003d0 63 40 7c be 88 e5 d3 3d 07 77 95 3d 3f c9 0c be
       -0.24633937 0.10346514 0.07298093 -0.13748644
0003e0 e7 bb 9f bd 8b 9f 89 3d 7f 69 2a be 12 79 fa 3d
       -0.077995114 0.067198835 -0.16641806 0.122301236
0003f0 5b e3 2c 3d 8d fc 38 39 2c 1e 8e 3d 59 f2 75 bc
       0.04220901 0.0001764169 0.069393486 -0.015011393

res_block1.0.bias f4 [64]
000000 cf cb da 3d 1c dd 46 3d f4 8b c4 bd 2c 31 00 3e
       0.10683405 0.04855071 -0.095970064 0.12518758
000010 a5 6b bb bd f7 32 33 bd 6d fe 19 3e 50 0d ee bd
       -0.09151391 -0.043749776 0.15038462 -0.11623633
000020 89 cb c6 3a cf c4 04 be 5a 9e 5b 3d 54 5c 5c 3d
       0.0015166859 -0.12965702 0.053617813 0.05379899
000030 12 f9 9d bd ec ca 18 3e 99 63 d3 bd 04 da fe bd
       -0.07713522 0.14921159 -0.10321731 -0.12443927
000040 ec 30 f1 bc 07 b7 63 3d ee 8b 10 be 0a c5 68 3c
       -0.029442273 0.05559447 -0.14115879 0.014207134
000050 f2 33 e8 bd ba f0 ab bd 8f 79 42 bd b5 2a 6e 3c
       -0.11338033 -0.08395524 -0.04747921 0.014536549
000060 8b 5d 15 3d 4b b2 b3 bd 65 8a 2a 3d 1e 4f 6c bc
       0.036466163 -0.08774241 0.04163589 -0.01442316
000070 0a 12 d1 bd c3 a3 51 3c 8e 46 29 be 50 c4 01 3e
       -0.10208519 0.0127953915 -0.1653082 0.12672544
000080 21 7a 88 39 80 e9 7e bd 50 34 c0 3d 11 81 24 3e
       0.00026030935 -0.0622344 0.09384978 0.1606486
000090 b6 c2 9f bd 94 28 b0 3b ef 0a 94 3d 27 08 5b 3d
       -0.0780081 0.005375931 0.07228648 0.05347457
0000a0 3a 28 ac bd 37 ec 28 bd c0 48 28 3c a4 e0 e5 bd
       -0.0840611 -0.041240897 0.010271251 -0.112244874
0000b0 5a 0c cf 3c 17 2d e0 3d 0d 33 cf 3d 5b 8e 06 be
       0.025274444 0.109461 0.10117159 -0.13140242
0000c0 e7 4f 74 bd 96 63 af bd 2c 32 61 bd b3 33 3a 3d
       -0.059646513 -0.085639164 -0.05497949 0.04545946
0000d0 b0 e0 00 be 73 c5 da bd f9 71 c2 bc 6a 38 b2 3d
       -0.12585711 -0.10682192 -0.023735987 0.087021664
0000e0 c7 41 fb 3c df 42 b0 b9 a9 17 59 3d 0a 22 2c 3d
       0.030671014 -0.0003361916 0.05300108 0.04202465
0000f0 ef 7b c7 3d 86 aa f7 3d d4 e3 50 bc a4 2c 0f bd
       0.09740435 0.12093072 -0.012749631 -0.034954682

res_block1.2.weight f4 [64, 64]
000000 44 28 3d 3d c2 f3 f5 bb d7 ae 1f bd 07 d8 04 3e
       0.04618098 -0.007505865 -0.0389851 0.12973033
000010 f2 12 80 bd 18 b5 db 3d 4c 57 0e be 55 b7 bb 3d
       -0.062536135 0.107279 -0.13900489 0.09165827
000020 52 65 e9 bb 3e 82 75 bd 3b ab 5e 3d 8a 6d 2c 3d
       -0.007122674 -0.05993866 0.054362517 0.042096652
000030 b3 28 c9 bd 18 ea fe 3d f7 41 ca 3b 3a 46 3d bd
       -0.09822216 0.124469936 0.0061724144 -0.04620955
000040 7d 9c ed bc 32 3f 09 3d 83 61 05 3e 03 a6 8d bd
       -0.029005283 0.033507533 0.13025479 -0.0691643
000050 9c fa 73 bd a0 b5 87 3d 89 19 3e 3c 5d 15 ce bc
       -0.05956517 0.06626439 0.011602768 -0.025156671
000060 b6 7a bc bd 7f cc f0 3d c3 d2 01 3e 67 dc 0e 3d
       -0.09203093 0.117577545 0.12678055 0.03487816
000070 57 2b e4 3c 75 9b c6 bb 1d d2 05 3e 66 d0 7a bd
       0.027852697 -0.0060610124 0.13068433 -0.0612339
000080 54 b5 15 be 3d e9 52 bd f4 4e ec bd 7c 61 da bc
       -0.14619952 -0.051491965 -0.115384966 -0.026657812
000090 24 65 a5 bd f0 46 83 bc 75 c7 43 bc 60 b2 a9 3d
       -0.08075932 -0.016025037 -0.01194941 0.082859755
0000a0 a9 77 ba bd dd 7b c0 3d 71 0a 87 bc 01 3c 79 3d
       -0.091048546 0.09398625 -0.016484471 0.06084824
0000b0 3e 52 1c 3e 8b 8c cf 3d 1b 99 bb bd e9 38 28 3d
       0.15265748 0.10134228 -0.09160062 0.0410699
0000c0 fe c1 9c 3b 7d 4e c6 3c 75 6d b9 bc 36 09 00 3e
       0.004783868 0.024207348 -0.022635201 0.12503514
0000d0 02 fa f6 3d 38 b3 2f 3d 6a e2 d0 bc 47 71 e5 ba
       0.12059404 0.042895526 -0.025498588 -0.0017505073
0000e0 69 3b b4 bd 21 f0 aa bd 60 36 32 3e c2 61 f4 bc
       -0.08800394 -0.08346582 0.17403555 -0.02983177
0000f0 71 19 09 be ac 99 a5 bd e7 ed 8e bc 2e 0b b6 3d
       -0.13388611 -0.08085951 -0.017447425 0.08888851
000100 70 e1 af bd 6f b4 00 3c 3f a7 b1 3d 2d 6c 05 bd
       -0.08587921 0.007855519 0.08674478 -0.032573868
000110 f4 c0 65 bd ad 12 ed 3c c7 c0 39 bb 31 c7 9a bd
       -0.056092218 0.02893957 -0.0028343664 -0.07557524
000120 a7 07 45 3d ae fb fb 3d 63 c9 ad bd 60 29 a8 3d
       0.048103 0.123038635 -0.08485677 0.08211017
000130 af fc e3 bb e2 76 ff 3c 9f ab 02 bd 7e 10 b2 3c
       -0.0069576125 0.031184617 -0.031901952 0.02173638
000140 fb 95 9d 3d f9 bf a1 bd d5 f6 71 bd 0c ba bb bd
       0.07694622 -0.07897944 -0.059073288 -0.09166345
000150 e5 7b c9 3d 7f e4 d9 3d f2 58 80 3d 80 02 01 be
       0.09838084 0.10639285 0.06266965 -0.1259861
000160 28 81 1b be db 79 1c 3e 45 18 f8 bd 40 dd 85 bc
       -0.15185988 0.15280859 -0.12114004 -0.016340852
000170 7a 70 42 bd e6 44 7b 3d b2 0d b2 3d 83 47 da bd
       -0.047470547 0.061345004 0.086940184 -0.10658171
000180 d9 d8 05 3e 28 a1 fb bb d6 bd 80 3d 46 be 22 3c
       0.13071002 -0.0076791234 0.06286208 0.00993306
000190 cc 52 d4 bd bf 96 c8 3d 33 e5 06 be 8a 46 15 3c
       -0.10367355 0.097943775 -0.1317337 0.009111056
0001a0 76 83 83 3d 0b b4 14 be dc 50 bd 3d 59 81 bc 3d
       0.064215586 -0.14521806 0.09243938 0.092043586
0001b0 f9 97 52 3d 3c 42 f3 bd e3 38 f6 bd 93 7c e8 3c
       0.051414464 -0.118778676 -0.12022569 0.028379714
0001c0 64 04 2c bd c8 9d a4 3c b5 8f 27 bd 85 7c d5 bd
       -0.041996375 0.020094767 -0.040908534 -0.10424141
0001d0 58 6b 72 bd e7 c1 47 3c 0a a9 5b bc 34 5c b0 bc
       -0.059184402 0.012192226 -0.013407001 -0.02152834
0001e0 21 0c 05 bd 88 9e 74 bd 1d ca 28 bc af 51 bc 3d
       -0.03248227 -0.0597215 -0.010302094 0.091952674
0001f0 2a 24 48 bd b8 b1 19 3e 34 50 db 3d cd 2c 3e 3e
       -0.048862614 0.150092 0.10708657 0.18571778
000200 f9 6a 03 3e 74 fc dd 3d 46 9f a1 3d c4 ad 2f be
       0.12833776 0.10839167 0.07891707 -0.1715613
000210 dc ea 1c 3d 3d b1 a6 bc 43 09 32 3d 06 78 27 3b
       0.038309917 -0.020348186 0.043465864 0.0025553717
000220 8b e2 08 be 38 14 06 bd 51 e6 fe bc 61 21 c7 3d
       -0.1336767 -0.032734126 -0.031115683 0.097231634
000230 aa 31 9c 3d 00 dc 00 3c 29 a7 a6 bd da 6e ed 3d
       0.0762666 0.007864952 -0.08137352 0.11593409
000240 8e 43 8d 3d 31 90 00 bc 62 e2 ab bc e0 d0 ac 3b
       0.06897651 -0.007846878 -0.020981971 0.0052739233
000250 8e 5a 9d 3a d2 64 b1 3d 3b ef 09 bd 13 85 a6 3d
       0.0012005137 0.08661808 -0.033675414 0.08130851
000260 8e ad 09 3c a2 52 02 bd e0 73 36 bd 3f 56 09 bd
       0.008403195 -0.031817086 -0.0445441 -0.033529516
000270 93 9b dd 3d 5d 29 df 3d 1d 85 e0 3d 7e d6 04 bc
       0.10820689 0.10896561 0.10962889 -0.00810778
000280 d1 c1 13 3d 48 07 99 bd 60 67 59 be 61 58 dd 3d
       0.03607351 -0.07472092 -0.2123084 0.108078726
000290 e5 1f 8f bd 8e ee 62 3a 24 c5 d9 bd 1c 56 cf bd
       -0.06988505 0.0008656763 -0.10633305 -0.10123846
0002a0 3d ac e5 bd b8 0c f3 3d ee 8c 06 be f4 bc 17 3d
       -0.112144925 0.1186766 -0.13139698 0.037045434
0002b0 94 8f cb bd 22 ce 82 bd 98 39 7e 3d 2a 9c ab 3d
       -0.09939495 -0.06386973 0.062066644 0.08379395
0002c0 d5 95 1e bc f9 42 06 be 3c 19 8b bd c8 7e 63 bd
       -0.009679277 -0.13111486 -0.067919225 -0.05554083
0002d0 aa de ea 3d ae 8e 58 3e 45 95 02 be ae cd 02 3e
       0.11468251 0.21148178 -0.12752254 0.12773773
0002e0 99 60 15 3e 44 51 65 bd d9 9a ad bd 6d 26 ec bd
       0.1458763 -0.055985704 -0.084768005 -0.11530767
0002f0 04 5e b1 bd bb a0 e4 bd 3e ab 5d 3d 84 93 20 3e
       -0.0866051 -0.111634694 0.054118387 0.15681273
000300 43 8e f6 3d 18 93 b7 3d f4 e7 da 3d 7c 19 15 bd
       0.12038853 0.08963603 0.10688773 -0.036401257
000310 ef fe 01 3e 01 27 fc bd 0a b0 b1 bc 40 0a d2 3d
       0.12694906 -0.12312127 -0.021690387 0.10255861
000320 9f 64 f2 bd 99 53 34 3d 98 cc cf bd 63 4b 1a 3e
       -0.11835598 0.044025037 -0.10146445 0.1506782
000330 81 fc 13 be 9e 78 d8 bd 51 37 8e bd e3 8f b9 3d
       -0.14451791 -0.10569881 -0.069441445 0.09060647
000340 a4 6f 0c be df f0 c7 3d 9b ad a6 bd d0 89 14 3e
       -0.13714463 0.097627394 -0.08138581 0.14505696
000350 e4 d0 20 be a2 d9 9d bd 16 51 e1 bc 4e fd 5a 3e
       -0.15704685 -0.07707526 -0.027504485 0.2138569
000360 d3 f0 0e be f9 db 94 3c ee ce ad 3d 26 1f 7d bd
       -0.13959055 0.018171297 0.08486734 -0.061797284
000370 0d 3c 19 3c 86 82 2e bd fc 3f 2b 3d bc f2 d3 bc
       0.009352696 -0.042604946 0.041809067 -0.02587258
000380 61 94 d3 3d 3a 0d b4 3c 77 39 bb bc 35 a0 c6 bd
       0.103310354 0.021978963 -0.02285455 -0.09698526
000390 5d e9 8b 3d 5c 06 7a bd 8d 63 02 bd d9 22 18 be
       0.0683162 -0.06104122 -0.03183322 -0.14857043
0003a0 d1 5c 09 3d 8e 53 c8 3d 0e e9 c1 3d 3b 24 81 bd
       0.033535782 0.09781562 0.0946828 -0.063057385
0003b0 20 db e1 3d 7d 76 9e 3d 73 4b 30 bc 0b aa 1c bd
       0.11028123 0.077374436 -0.010760176 -0.038248103
0003c0 e7 0e 44 3d 54 82 36 bd 76 70 f9 bc 0a 52 0e be
       0.047865774 -0.044557884 -0.030449133 -0.13898483
0003d0 15 0a ea 3d 20 2c 82 bd 02 6e 9a bd 2c 25 60 be
       0.11427704 -0.063560724 -0.075405136 -0.2188918
0003e0 26 e3 30 bd 34 ff 8d 3d 0d 78 0a 3e 78 56 a8 bd
       -0.043185376 0.06933442 0.13522358 -0.082196176
0003f0 92 a5 07 be 4e 1e 9a 3d 84 15 09 3d 26 23 c5 3c
       -0.13246754 0.075253114 0.033467785 0.024064612

res_block1.2.bias f4 [64]
000000 f4 36 9c bd 92 d6 e8 3d 4f 7c e3 3d e0 cc e6 bd
       -0.07627669 0.11369051 0.11107694 -0.112695456
000010 7e 74 d1 bd 3f a3 fc 3d 87 43 91 3c 1a de a7 bd
       -0.10227297 0.12335824 0.017732395 -0.081966594
000020 fe 7f 3d bd d7 64 be 3d 05 b1 a8 bc 73 1e e5 3d
       -0.04626464 0.092965774 -0.020592222 0.11187448
000030 5b 85 fb bd 46 72 2c 3d 0e bf dc bc f7 4e 8e bd
       -0.12281295 0.042101167 -0.02694657 -0.06948655
000040 09 73 c5 bd eb a1 e9 bd 20 7c ae bd be 1f 2d bd
       -0.09641082 -0.114078365 -0.08519769 -0.0422666
000050 6e 71 c4 bd f9 e7 e4 bd b3 0c 5d bd 7c 15 19 3d
       -0.095919475 -0.11177058 -0.05396719 0.037374005
000060 93 52 4a 3d 64 e1 97 3d 71 9a c2 3d fa b5 87 3d
       0.049395155 0.07416037 0.095021136 0.06626506
000070 35 8f dc 3d a1 10 04 bc 47 e8 56 bd 1b 71 40 3d
       0.10769502 -0.008060605 -0.05246761 0.046982866
000080 34 c3 03 3c 25 48 86 3d e4 54 21 bd 50 b2 21 3c
       0.0080421455 0.06556729 -0.0393876 0.009869173
000090 4a b5 38 3d 4a 47 15 bc 6e ff d0 bd 9e c6 c3 3d
       0.045094766 -0.009111235 -0.10204969 0.095593676
0000a0 32 28 14 bc fd fe 14 bc 73 cc 98 3c a2 9b 66 3d
       -0.009042786 -0.009093997 0.018652176 0.056300767
0000b0 19 5f c7 bd 23 4b 00 be 38 4f 19 bd ad f2 8f 3d
       -0.09734935 -0.12528662 -0.037429065 0.070287086
0000c0 96 a7 2b bd af bd db 3d 7e ce 0d bd 0a 3b 04 3e
       -0.04190787 0.10729539 -0.034620754 0.12913147
0000d0 72 7e ba 3d 29 ba 35 3b 8d 98 80 3c 08 83 eb bc
       0.09106149 0.0027729368 0.015697742 -0.028749004
0000e0 fe 2a eb 3d 7d 59 9e bd 81 88 9c 3d 30 63 8e bd
       0.114828095 -0.07731912 0.076432236 -0.06952512
0000f0 56 b8 28 3c b3 33 1b 3d f4 81 85 bc 23 98 c2 bd
       0.010297855 0.0378911 -0.016297318 -0.09501674

res_block1.3.weight f4 [64]
000000 6d 78 73 3f 09 5d 7a 3f 2b e6 64 3f 6b 1f 7c 3f
       0.9510563 0.9779821 0.8941371 0.9848544
000010 71 41 72 3f fe 9f 84 3f 15 85 76 3f bd 2d 64 3f
       0.94631106 1.0361326 0.9629682 0.8913229
000020 e5 26 85 3f 41 71 7a 3f 9b 9f 8a 3f 55 b1 8a 3f
       1.0402495 0.9782906 1.0829958 1.0835367
000030 80 2a 79 3f c1 d6 83 3f fb c8 83 3f 10 4d 81 3f
       0.97330475 1.0299913 1.0295709 1.0101643
000040 fe cb 6f 3f f0 31 88 3f 04 60 81 3f b8 aa 81 3f
       0.9367064 1.064024 1.0107427 1.0130224
000050 7b 7b 88 3f b7 5d 7a 3f 4c a0 83 3f 92 c5 72 3f
       1.0662683 0.9779925 1.0283294 0.9483272
000060 3a 64 82 3f f0 04 7b 3f ea d1 7b 3f fa 69 80 3f
       1.0186837 0.9805441 0.9836718 1.0032341
000070 ed 1e 84 3f de 2a 83 3f 5e 39 76 3f 97 e3 81 3f
       1.0321938 1.0247457 0.96181285 1.014758
000080 f7 07 86 3f 04 29 77 3f 14 09 85 3f 99 5e 7c 3f
       1.0471181 0.9654696 1.0393395 0.98581845
000090 f8 45 81 3f 50 51 81 3f 9e 09 87 3f 5b 08 84 3f
       1.0099478 1.010294 1.054981 1.031505
0000a0 ab 9b 6f 3f 31 50 78 3f 5a 01 63 3f 63 f8 6f 3f
       0.93596905 0.9699736 0.8867394 0.93738383
0000b0 37 d5 85 3f c5 9a 71 3f 98 be 81 3f 85 5f 7b 3f
       1.0455693 0.94376785 1.013629 0.98192626
0000c0 2a 8b 7b 3f 87 72 7b 3f fe 2f 82 3f 63 04 8a 3f
       0.9825922 0.9822163 1.0170896 1.0782589
0000d0 ce ad 7c 3f 9d 35 81 3f 27 77 77 3f aa 52 6c 3f
       0.98702705 1.0094486 0.9666619 0.92313635
0000e0 58 85 7f 3f 0c 79 80 3f 81 ee 78 3f fe bc 85 3f
       0.9981284 1.003694 0.9723893 1.0448301
0000f0 8b 8f 86 3f 34 89 73 3f 72 17 7f 3f d4 32 86 3f
       1.0512556 0.9513123 0.9964515 1.0484262

res_block1.3.bias f4 [64]
000000 96 b9 7c bd 16 a9 ea 3b b6 f4 a7 bd 9d c0 ef bc
       -0.061700426 0.00716127 -0.08200972 -0.02926665
000010 7f b0 42 3b 06 62 89 3c 61 62 6d bc 85 d7 d8 bd
       0.002970725 0.016770374 -0.014488787 -0.10587982
000020 79 78 21 3d 17 d7 0a bd f5 c1 8f bd 74 c3 08 bd
       0.039421532 -0.033896532 -0.07019416 -0.033389524
000030 ed 0f 59 3d e2 78 00 bd a1 27 40 bd 2a 40 aa 3c
       0.052993704 -0.031365283 -0.046912793 0.020782549
000040 47 b0 1c 3d 2d 22 7f bd b4 db 51 3c 10 17 82 bd
       0.03825405 -0.062288452 0.012808729 -0.06352055
000050 c8 8c 50 3c 16 dd e2 bc 16 e3 ed 3c c6 a6 6e bd
       0.012728877 -0.027693313 0.029038947 -0.058264516
000060 ca 7d 98 bc 0b 46 92 bd 89 80 1b bd 67 bb b1 3c
       -0.018614668 -0.07142266 -0.037964378 0.021695806
000070 bd 70 75 bc e0 3e 21 3d 9b b5 ce bc 1e d3 f3 3c
       -0.014980492 0.039366603 -0.02523308 0.029763754
000080 82 c2 8e bc 55 80 53 bc 2f 43 95 bc 57 02 17 bd
       -0.017426733 -0.012909015 -0.018220512 -0.036867466
000090 ff 20 e8 ba 48 61 cc 3d b8 b6 92 3d 88 72 06 3d
       -0.0017710029 0.099794924 0.07163757 0.03282407
0000a0 d2 b1 51 bc 35 7e e4 bc 9e d8 5e bc 0c 13 10 be
       -0.012798743 -0.027892211 -0.01360145 -0.14069766
0000b0 42 4f 42 bd 19 3c 4d bd 32 da 5c bd 4c a7 0f 3b
       -0.047438867 -0.05010614 -0.053919025 0.0021919785
0000c0 10 c4 c7 bd 5c d7 5e bd 28 51 65 3b 5a 62 53 bd
       -0.09754193 -0.0544046 0.0034991 -0.051607467
0000d0 92 52 8f bd 16 20 c2 3c 44 19 c8 bd f4 2b 8d bd
       -0.06998171 0.02369694 -0.09770444 -0.06893149
0000e0 9a 6b 46 bd 59 35 b3 bd 78 86 6f 3b b2 ff f8 3c
       -0.04844246 -0.0875041 0.0036548655 0.030395363
0000f0 0e 32 ea bc 23 af 90 bd df 8b b9 bd d8 6c 8c 3c
       -0.028588321 -0.07064655 -0.090598814 0.017141744

res_block1.3.running_mean f4 [64]
000000 67 71 1b 3e 3e ad a8 3c 58 dc ad 3c b7 d9 52 bd
       0.15179978 0.02059042 0.021223232 -0.05147716
000010 ea 0b d1 be 3a 18 ce 3d e3 83 d7 3d 80 08 46 3e
       -0.40829402 0.100632146 0.10523202 0.1933918
000020 39 c3 62 bd 49 17 53 bd d9 95 b2 3d 97 57 bb bd
       -0.05536196 -0.05153588 0.087199874 -0.09147566
000030 08 71 0e bf 3c 9d 48 be ed d9 49 be a6 3f a3 be
       -0.5564122 -0.1959123 -0.19712038 -0.31884497
000040 59 ae ad be 5e b2 b8 3e 19 0b c6 bc 0e 5b 53 3e
       -0.3392208 0.36073583 -0.024175214 0.20640203
000050 12 80 51 3e 30 79 c0 be 61 1c 42 be f5 61 11 3d
       0.20459011 -0.3759246 -0.18956138 0.03549381
000060 d8 34 b3 3c 82 53 50 be c8 85 eb bc 79 98 93 bd
       0.021875784 -0.20344356 -0.028750315 -0.07206816
000070 c7 5c d5 be 4a a5 b8 be 0e 95 e4 be 01 3f 05 bf
       -0.41672346 -0.36063606 -0.4464497 -0.5204926
000080 fc 73 e5 bd 83 e2 32 bd 0c 61 57 be c8 5c ef bb
       -0.11203763 -0.04367305 -0.21033114 -0.0073047616
000090 40 60 62 be 0b d7 80 be 7f fb d0 bd 0a c3 01 bc
       -0.22107029 -0.25164065 -0.10204219 -0.007920036
0000a0 2a c2 a0 3c be 9c 1f be 21 fa f0 3e 7c 93 89 3e
       0.019623835 -0.15587136 0.47065833 0.26870334
0000b0 65 4a 3c bd 4e 9d 9e 3d 17 8c 69 3e e0 c0 21 be
       -0.045969386 0.07744847 0.22807346 -0.15796232
0000c0 94 b5 e6 3d 5a cf d5 3d fe db 06 bf 86 8e 7b 3e
       0.11265102 0.1043994 -0.5267943 0.24566087
0000d0 5a ff 8f bd 10 8f 84 3e 53 9c 8d 3e 17 5c c6 3e
       -0.07031126 0.25890398 0.27658328 0.38742134
0000e0 5c d4 a6 bd 5e 70 b1 be f2 4c af 3e 5a a8 3e be
       -0.08145973 -0.34656042 0.34238392 -0.18618909
0000f0 2b 10 75 3e f7 74 a3 3e 52 6c 8b 3e c4 15 0f bf
       0.23931949 0.31925175 0.2723108 -0.55892587

res_block1.3.running_var f4 [64]
000000 7d 01 6c 3d 0b 5c bb 3d c8 5d 8a 3d b8 df ec 3d
       0.057618607 0.09148415 0.067561686 0.115661085
000010 12 01 94 3d 46 d7 b4 3d 11 c1 d3 3d 4e 1f 8a 3d
       0.07226767 0.08830123 0.10339559 0.06744252
000020 e2 09 2e 3d 85 fe 7e 3d a2 ac b4 3d 87 63 84 3d
       0.042489894 0.062254447 0.088219896 0.06464296
000030 1e f7 a6 3d 5f 85 7a 3d e0 ab 82 3d 74 cd 8d 3d
       0.081526026 0.06116235 0.06380439 0.06923953
000040 47 64 6e 3d 23 65 d8 3d a1 c3 ab 3d b9 75 a3 3d
       0.0582011 0.10566165 0.08386923 0.07981438
000050 10 f7 1a 3e ec 01 8b 3d 30 2e 14 3d 86 52 97 3d
       0.1513331 0.06787476 0.03617686 0.07388787
000060 36 ad 21 3d ba 7e df 3d ff 76 29 3d 68 c6 ac 3d
       0.039471827 0.10912843 0.04137325 0.084362805
000070 78 ec 80 3d b4 94 a6 3d 0b 9e 93 3d ed 21 0a 3e
       0.06295103 0.081338316 0.07207879 0.13489504
000080 72 53 4f 3d 90 85 a8 3d c5 ee 47 3d c8 4d 15 3d
       0.05061669 0.082286 0.048811693 0.03645113
000090 0c 99 90 3d 31 29 49 3d 2c 09 57 3d f5 fb 8f 3d
       0.070604414 0.04911155 0.05249898 0.07030479
0000a0 1c c5 20 3d 29 84 05 3e fa 73 01 3e ee 9c b0 3d
       0.03925048 0.13038696 0.12641898 0.08623682
0000b0 8c f6 97 3d 5a de 7b 3d 48 38 75 3d 3a e8 2e 3e
       0.07420072 0.061491348 0.059868127 0.17080775
0000c0 8b 58 3f 3d 6d 4c 92 3d 20 0f 9d 3d 13 c7 c4 3d
       0.0467153 0.07143483 0.076689005 0.09608283
0000d0 58 f3 7d 3d 86 e4 8f 3d e2 dc 3b 3d 17 1c be 3d
       0.06199965 0.07026009 0.045864947 0.092827015
0000e0 14 b1 72 3d c7 ce 96 3d ec 0b 92 3d dc 9f 07 3d
       0.059250906 0.073636584 0.0713118 0.03311144
0000f0 70 00 d8 3d 37 81 8e 3d 5e e6 f8 3c 07 7e 20 3d
       0.105469584 0.069582395 0.030383285 0.03918269

res_block2.0.weight f4 [64, 64]
000000 eb 6e 2f bd 0f 6a 92 3d bb 8c b3 3d ef a4 c7 3c
       -0.04283039 0.07149135 0.087670766 0.024370639
000010 c4 78 4a bd e7 ee 13 bd c0 67 19 bd d7 42 c3 bd
       -0.049431577 -0.036116507 -0.03745246 -0.09534233
000020 ca f3 1b be f3 d3 9a bd cc 12 72 bd 53 8f 3b 3d
       -0.15229717 -0.07559957 -0.059099957 0.04579098
000030 17 1c cd 3c 09 09 3b be ab e4 88 3d bd 06 fc 3c
       0.025037808 -0.18265165 0.0668424 0.030764932
000040 89 ef 0e be 71 e0 ec 3d c9 29 bd bd 9f cd 09 3e
       -0.13958563 0.11566246 -0.092364855 0.13457344
000050 43 0a 49 3e 30 4b 70 3d 65 4e d1 bd 9d 24 eb bb
       0.19632821 0.058665454 -0.10220031 -0.0071759955
000060 2a 4e 90 3d 84 93 e2 bd b0 48 00 3d 30 3a 56 3e
       0.070461586 -0.110632926 0.03131932 0.20920634
000070 3f 66 fc bd ca 16 99 bd 41 e1 bf 3c 86 77 20 3e
       -0.123241894 -0.0747505 0.02342284 0.15670595
000080 17 7e 78 3c 2c 35 96 3d 6e 1e 04 3c 1b 9a a2 3d
       0.015166781 0.073343605 0.008063896 0.079395495
000090 35 e0 dd bd fc 88 3e 3d 92 fc 00 3e 70 e1 10 be
       -0.1083378 0.046517357 0.12596348 -0.14148498
0000a0 00 8c ec bd d5 56 d5 3d e3 67 88 3d 36 ab 17 bd
       -0.115501404 0.104169525 0.0666044 -0.037028514
0000b0 a5 66 ed bc 0d ac 11 bd 6b be 3c bc c8 97 d3 bd
       -0.028979609 -0.03556447 -0.011520009 -0.10331684
0000c0 46 5b 1c be 22 e7 d3 bd a0 4b b7 3c eb 0b dc 3d
       -0.15269193 -0.103468195 0.022374928 0.10744461
0000d0 e5 2f dd bd 71 69 e0 bb 3e b4 c2 3b 83 0c a6 bd
       -0.10800151 -0.006848507 0.0059418967 -0.08107855
0000e0 5b 64 0f bd c3 3e c4 3d 38 f0 90 3d ef d2 bc bd
       -0.035007816 0.09582283 0.07077068 -0.0921992
0000f0 56 cf 9b bd 82 ea 78 3d 23 b2 19 bd 95 f3 38 bc
       -0.076079056 0.06077052 -0.0375234 -0.011288543
000100 80 f8 0e 3d b0 af b7 bc 15 c0 b2 bd bc 73 a2 bb
       0.034904957 -0.022422642 -0.08728043 -0.0049576443
000110 f4 f6 b8 3b 89 6e 0e be b0 5e 93 3d b4 08 27 bc
       0.0056446735 -0.13909353 0.071957946 -0.010194946
000120 a7 a2 16 be 2e c1 3a 3d f0 46 8a 3d be 67 1c bd
       -0.14710484 0.045594387 0.067518115 -0.038184874
000130 3e 92 10 3d 2f d1 8d 3d 91 ff 15 be 3c 52 58 bd
       0.035295717 0.06924664 -0.14648272 -0.0528128
000140 26 58 69 bd d7 3f 95 bd 8c 51 f6 bc 45 2b 1a be
       -0.05696883 -0.07287567 -0.030068181 -0.15055569
000150 e2 83 ca bb 94 ff 06 be fb f7 b1 bd 24 eb b2 bd
       -0.0061802724 -0.13183433 -0.08689877 -0.08736256
000160 83 ff 6a 3d c1 15 46 3d 5c 5c 9c bd 1d ae 2b 3b
       0.05737258 0.04836059 -0.07634804 0.002619631
000170 0b 2a 9d bc ee c6 a9 3d 76 7a 40 3d 80 cc a9 bc
       -0.019185087 0.08289896 0.046991788 -0.020727396
000180 f1 e8 2f bd 67 14 90 bc f5 6e a6 ba ff 3a 74 bd
       -0.04294676 -0.017587854 -0.0012697863 -0.059626576
000190 a1 15 9b bc 3e 29 a0 39 43 cc f2 bc 7c 0b 61 3c
       -0.018931212 0.00030548306 -0.029638415 0.013735648
0001a0 2a 7a d6 bd 08 11 bf bd f5 d1 be 3c 62 4e f4 bb
       -0.1047252 -0.0932942 0.023293475 -0.007455633
0001b0 a5 b8 0c 3d 31 09 6c bd 85 cf b8 bd ee f8 03 be
       0.03435578 -0.057625953 -0.09023956 -0.12887928
0001c0 2f 74 80 bb cf 0b 83 3b 08 6c dc bd de b0 07 be
       -0.0039201 0.0039992104 -0.10762793 -0.13251063
0001d0 7b 60 7e bd 2c 2f 0b be b2 37 f9 bd 88 58 40 bc
       -0.06210373 -0.13592213 -0.12168826 -0.0117398575
0001e0 27 19 91 3c 91 5c 0c 3c e1 2f b1 bc ad 15 1c be
       0.017712189 0.008566991 -0.021629276 -0.15242644
0001f0 10 d2 3d 3d 53 0c 02 bd 33 64 fd bd b3 ad 8c 3d
       0.04634291 -0.031750035 -0.12372627 0.06869068
000200 7d f3 94 bd 05 60 a8 bd 32 13 9d 3d 9a aa 0f be
       -0.07273004 -0.08221439 0.07669677 -0.14029923
000210 e1 e7 e8 3d 7e c7 d3 3c 04 65 20 be 51 62 e0 bd
       0.113723524 0.025851961 -0.15663534 -0.10956252
000220 d1 7c 02 be d8 56 13 bc 79 93 0a 3d 1d 10 8a 3c
       -0.12742926 -0.008992873 0.033832047 0.016853387
000230 9d 62 f4 3b e9 cf bb 3c fe 70 0a 3d b3 f8 02 3d
       0.0074580447 0.022926288 0.033799164 0.03197546
000240 13 f9 7b 3d 81 33 f0 3d eb 3f 94 3d c2 51 2b be
       0.061516833 0.117285736 0.07238754 -0.16730407
000250 a2 ee 97 bd 08 ba 8b bd b3 7e e9 bd 26 d4 b8 bb
       -0.074185625 -0.06822592 -0.11401119 -0.0056405244
000260 ef 82 b3 3d 9c 8f dd bd 55 08 93 bd 6f 95 ad 3d
       0.08765208 -0.10818407 -0.071793236 0.08475768
000270 75 14 93 3d 85 6b ba 3d 32 28 0c 3e 2e e5 f6 3d
       0.07181636 0.09102539 0.13687208 0.12055431
000280 ed 76 9a bd 79 b8 f7 bd 7c 04 19 3e 07 8c a0 3d
       -0.075422145 -0.12095732 0.14943117 0.07839208
000290 54 ff ae bc 3c 2c f8 bc d2 8e 15 3d 4b c3 e9 bd
       -0.021361984 -0.03029453 0.036513157 -0.11414202
0002a0 53 7d 29 bd 3e f9 da 3d ed 1b 68 3d 7f 19 96 3c
       -0.041379284 0.106920704 0.056667257 0.018322704
0002b0 a6 69 7d 3d 48 8c 59 3b ef 95 2d bd 05 a2 9a 3d
       0.061868332 0.0033195186 -0.042379316 0.07550434
0002c0 6f b5 12 3d e8 03 36 3d 9e 02 8e bd 33 54 09 3d
       0.03581756 0.04443732 -0.06934093 0.033527564
0002d0 3b 28 b2 3d 2e 30 db 3d a7 d0 40 3d cc 97 ff 39
       0.086990796 0.10702549 0.047073986 0.00048750488
0002e0 94 c5 a1 3c b7 2b e4 3d 06 68 e9 bb 18 64 b9 bd
       0.019747533 0.111411504 -0.0071229963 -0.090522945
0002f0 0d 54 07 bc b7 87 db bc af 2b c8 3c 65 31 16 3e
       -0.008259785 -0.026798112 0.024434892 0.1466728
000300 3a 8b 95 3d b0 3c 6e bd b5 d3 d5 3d c1 e9 de bd
       0.07301946 -0.058163345 0.104407705 -0.10884429
000310 10 3d f1 bd 1e 01 a1 bd 58 04 12 3d 18 13 82 3d
       -0.11779225 -0.07861541 0.035648674 0.06351298
000320 66 ae 65 3d 00 c8 b9 3d 05 c9 e1 3c dd b5 90 bb
       0.056074522 0.0907135 0.027561674 -0.004416211
000330 7e 32 a4 3d b3 a4 96 3d fe d0 ce bd 7c b0 e2 bd
       0.08017443 0.07355633 -0.10098456 -0.11068818
000340 10 e0 11 be b9 79 fe bd 0e 49 c8 bd fc 80 22 bd
       -0.1424563 -0.124255605 -0.09779559 -0.03967379
000350 8b 52 10 bb ab 36 5e 3d 66 58 74 bc ff 24 db bc
       -0.0022021856 0.054251354 -0.014913654 -0.02675104
000360 e7 b9 ce 3a 01 ee fc bd 45 d7 10 be 25 12 92 3c
       0.0015771956 -0.12350083 -0.14144619 0.017830918
000370 fe 00 c6 3c 56 eb 0c 3d 3b 1a 52 bd 34 c4 80 bc
       0.024170395 0.03440412 -0.051294547 -0.015718557
000380 89 b5 71 bd 76 5e 21 be 13 7d 06 be f3 ee e5 bc
       -0.059011016 -0.1575869 -0.1313365 -0.028068041
000390 2c f3 d9 bd 62 ed e1 bc 06 19 d1 bc 84 93 86 3c
       -0.106420845 -0.027579013 -0.025524627 0.016427763
0003a0 ae bb a9 bd d1 2f 90 3d b5 50 58 3d a4 d4 9d 3d
       -0.0828775 0.0704037 0.052811343 0.077065736
0003b0 a6 36 aa bd fa 95 41 3d 94 51 ec bd 85 97 50 bd
       -0.083112046 0.04726217 -0.11538997 -0.05092575
0003c0 78 e8 03 be d2 31 23 3c c6 d7 63 bd 68 84 53 3d
       -0.12881649 0.009960609 -0.0556257 0.051639944
0003d0 8f d0 9c 3d 4b 3f bc 3d 0f 17 4b 3d 32 78 1b be
       0.07656967 0.0919176 0.049582537 -0.1518257
0003e0 53 d9 a6 3d 22 12 4e bd 14 46 92 3c d8 55 e5 bc
       0.0814692 -0.05031026 0.017855681 -0.027995035
0003f0 2b 37 e8 bd fa f4 fe bd 3e 63 00 3d 72 fa 72 bd
       -0.113386475 -0.12449069 0.031344645 -0.059320875

res_block2.0.bias f4 [64]
000000 50 b2 1f 3d 6c 45 59 bd 89 13 b6 bd 17 ab d4 bd
       0.03898841 -0.05304472 -0.08890445 -0.10384195
000010 b7 a7 d5 bd 16 77 cb 3c d7 05 d7 bc c3 af a1 3d
       -0.1043238 0.024837058 -0.026247902 0.07894852
000020 f9 7d 3f 3c b0 2f 03 be b8 af 91 3d 4f 9f ba bd
       0.011687749 -0.1281116 0.07113594 -0.09112417
000030 02 4c da 3d 77 aa a1 bd 28 84 49 3d a4 8e 9a 3c
       0.106590286 -0.07893842 0.0491983 0.018866844
000040 d6 53 95 bd a7 74 df bc 38 c5 11 bd 3d ff 51 3d
       -0.07291381 -0.027277304 -0.035588473 0.051268805
000050 56 71 ca bd 30 49 9f bd b0 f5 f5 bc 79 e6 9f bd
       -0.09884898 -0.07777631 -0.03002438 -0.07807631
000060 11 d0 5c bb 92 ef 73 3d 8e 2d e7 bd 6a b5 5d 3d
       -0.0033693353 0.059554644 -0.11287986 0.054128088
000070 02 a3 f6 bd 46 cc 2a bd b4 79 ce 3d 84 d2 70 bd
       -0.1204281 -0.041698717 0.10081807 -0.058794513
000080 71 8a dc 3d 6f da f4 bd a4 c2 03 3c 67 a4 9e bd
       0.10768593 -0.119557254 0.008042011 -0.07746201
000090 1c 00 c1 3d 94 34 f2 bd a9 06 7f 3d c8 b7 90 3d
       0.09423849 -0.11826435 0.06226221 0.070663035
0000a0 f0 db 34 3d 9b f7 46 3d 06 87 41 bd 3b 62 51 3d
       0.04415506 0.04857598 -0.04724791 0.05111907
0000b0 91 4e aa bd 0f 73 17 be a9 14 ad bd 55 58 d6 bd
       -0.083157666 -0.14789985 -0.08451206 -0.10466067
0000c0 e2 86 e7 bd eb 8c c7 bc 27 b5 db bd 18 a4 ab 3d
       -0.11305024 -0.024359187 -0.107279114 0.08380908
0000d0 98 71 a5 bd 18 89 c1 bd 45 84 85 bd e6 e8 7e 3d
       -0.08078307 -0.09449977 -0.06519369 0.062233828
0000e0 de 60 92 bb 37 5a 1c bd c6 17 6e 3c 4b 96 79 bc
       -0.004467114 -0.038171973 0.014532035 -0.015233587
0000f0 0f c5 c5 bc 70 17 ba bc 13 f1 84 bd db 94 5d 3d
       -0.024141816 -0.022716254 -0.06491294 0.054097038
